…
    "model.add(Convolution2D(50, 5, 5))\n",
    "model.add(Activation('relu'))\n",
    "model.add(MaxPooling2D(pool_size=(1, 1)))\n",
    "#model.add(Dropout(0.25))"
   ]
  },
  {
   "cell_type": "code",
   "execution_count": 225,
   "metadata": {},
   "outputs": [
    {
     "name": "stdout",
     "output_type": "stream",
     "text": [
      "Model: \"sequential_53\"\n",
      "_________________________________________________________________\n",
      "Layer (type)                 Output Shape              Param #   \n",
      "=================================================================\n",
      "conv2d_93 (Conv2D)           (None, 18, 18, 20)        520       \n",
      "_________________________________________________________________\n",
      "activation_85 (Activation)   (None, 18, 18, 20)        0         \n",
      "_________________________________________________________________\n",
      "max_pooling2d_62 (MaxPooling (None, 4, 4, 20)          0         \n",
      "_________________________________________________________________\n",
      "conv2d_94 (Conv2D)           (None, 1, 1, 50)          16050     \n",
      "_________________________________________________________________\n",
      "activation_86 (Activation)   (None, 1, 1, 50)          0         \n",
      "_________________________________________________________________\n",
      "max_pooling2d_63 (MaxPooling (None, 1, 1, 50)          0         \n",
      "_________________________________________________________________\n",
      "flatten_14 (Flatten)         (None, 50)                0         \n",
      "_________________________________________________________________\n",
      "dense_28 (Dense)             (None, 500)               25500     \n",
      "_________________________________________________________________\n",
      "activation_87 (Activation)   (None, 500)               0         \n",
      "_________________________________________________________________\n",
      "dense_29 (Dense)             (None, 156)               78156     \n",
      "_________________________________________________________________\n",
      "activation_88 (Activation)   (None, 156)               0         \n",
      "=================================================================\n",
      "Total params: 120,226\n",
      "Trainable params: 120,226\n",
      "Non-trainable params: 0\n",
      "_________________________________________________________________\n"
     ]
    }
   ],
   "source": [
    "model.summary()"
   ]
  },
  {
   "cell_type": "code",
   "execution_count": 217,
   "metadata": {},
…
